…
augment=randaugment, erasing=0.4, crop_fraction=1.0, cfg=None, tracker=botsort.yaml, save_dir=runs/classify/train
[34m[1mtrain:[0m /home/endodl/PHASE-1/mln/anatomical/data/train... found 10564 images in 5 classes ✅
[34m[1mval:[0m /home/endodl/PHASE-1/mln/anatomical/data/val... found 2263 images in 5 classes ✅
[34m[1mtest:[0m /home/endodl/PHASE-1/mln/anatomical/data/test... found 2268 images in 5 classes ✅
Overriding model.yaml nc=80 with nc=5

                   from  n    params  module                                       arguments
  0                  -1  1      1856  ultralytics.nn.modules.conv.Conv             [3, 64, 3, 2]
  1                  -1  1     73984  ultralytics.nn.modules.conv.Conv             [64, 128, 3, 2]
  2                  -1  2    173824  ultralytics.nn.modules.block.C3k2            [128, 256, 2, True, 0.25]
  3                  -1  1    590336  ultralytics.nn.modules.conv.Conv             [256, 256, 3, 2]
  4                  -1  2    691712  ultralytics.nn.modules.block.C3k2            [256, 512, 2, True, 0.25]
  5                  -1  1   2360320  ultralytics.nn.modules.conv.Conv             [512, 512, 3, 2]
  6                  -1  2   2234368  ultralytics.nn.modules.block.C3k2            [512, 512, 2, True]
  7                  -1  1   2360320  ultralytics.nn.modules.conv.Conv             [512, 512, 3, 2]
  8                  -1  2   2234368  ultralytics.nn.modules.block.C3k2            [512, 512, 2, True]
  9                  -1  2   1455616  ultralytics.nn.modules.block.C2PSA           [512, 512, 2]
 10                  -1  1    664325  ultralytics.nn.modules.head.Classify         [512, 5]
YOLO11l-cls summary: 309 layers, 12,841,029 parameters, 12,841,029 gradients, 49.8 GFLOPs
Transferred 492/494 items from pretrained weights
[34m[1mAMP: [0mrunning Automatic Mixed Precision (AMP) checks...
Downloading https://github.com/ultralytics/assets/releases/download/v8.3.0/yolo11n.pt to 'yolo11n.pt'...
100%|██████████████████████████████████████████████████████████████████████████████████████████████████████████████████████████████| 5.35M/5.35M [00:01<00:00, 5.53MB/s]
…
