…
augment=randaugment, erasing=0.4, crop_fraction=1.0, cfg=None, tracker=botsort.yaml, save_dir=runs/classify/train
[34m[1mtrain:[0m /home/endodl/PHASE-1/mln/anatomical/data/train... found 10564 images in 5 classes ✅
[34m[1mval:[0m /home/endodl/PHASE-1/mln/anatomical/data/val... found 2263 images in 5 classes ✅
[34m[1mtest:[0m /home/endodl/PHASE-1/mln/anatomical/data/test... found 2268 images in 5 classes ✅
Overriding model.yaml nc=80 with nc=5

                   from  n    params  module                                       arguments
  0                  -1  1       464  ultralytics.nn.modules.conv.Conv             [3, 16, 3, 2]
  1                  -1  1      4672  ultralytics.nn.modules.conv.Conv             [16, 32, 3, 2]
  2                  -1  1      6640  ultralytics.nn.modules.block.C3k2            [32, 64, 1, False, 0.25]
  3                  -1  1     36992  ultralytics.nn.modules.conv.Conv             [64, 64, 3, 2]
  4                  -1  1     26080  ultralytics.nn.modules.block.C3k2            [64, 128, 1, False, 0.25]
  5                  -1  1    147712  ultralytics.nn.modules.conv.Conv             [128, 128, 3, 2]
  6                  -1  1     87040  ultralytics.nn.modules.block.C3k2            [128, 128, 1, True]
  7                  -1  1    295424  ultralytics.nn.modules.conv.Conv             [128, 256, 3, 2]
  8                  -1  1    346112  ultralytics.nn.modules.block.C3k2            [256, 256, 1, True]
  9                  -1  1    249728  ultralytics.nn.modules.block.C2PSA           [256, 256, 1]
 10                  -1  1    336645  ultralytics.nn.modules.head.Classify         [256, 5]
YOLO11n-cls summary: 151 layers, 1,537,509 parameters, 1,537,509 gradients, 3.3 GFLOPs
Transferred 234/236 items from pretrained weights
[34m[1mTensorBoard: [0mStart with 'tensorboard --logdir runs/classify/train', view at http://localhost:6006/
[34m[1mAMP: [0mrunning Automatic Mixed Precision (AMP) checks...
Downloading https://github.com/ultralytics/assets/releases/download/v8.3.0/yolo11n.pt to 'yolo11n.pt'...
…
